model_weights.pth (torch, 52107 bytes, 8 tensors)

conv1.lin_rel.weight f4 [64, 30]
0	0xbdce76dc	-0.100812644
1	0xbdd56368	-0.10419351
2	0xbd0f64c4	-0.035008207
3	0xbda3ecae	-0.080041274
4	0x3ccebec4	0.025237449
5	0x3dfa90a5	0.1223462
6	0x3e1dced9	0.15410937
7	0x3d820ed0	0.063504815
8	0xbb3467fa	-0.0027527795
9	0xbbcd74d5	-0.006270031
10	0x3e092315	0.13392289
11	0xbda5fa0a	-0.08104332
12	0x3e23808e	0.15967008
13	0xbe1db389	-0.15400518
14	0xbde4b21b	-0.111667834
15	0x3d989d72	0.07451905
16	0xbd445340	-0.047930956
17	0x3d0b85ac	0.034063026
18	0x3e387865	0.18014677
19	0x3ddfa8d6	0.10920875
20	0x3e539ce4	0.20665318
21	0xbd5e0f7a	-0.05421398
22	0xbd8c006b	-0.06836017
23	0xbc669392	-0.014073269
24	0xbc4ed27f	-0.012623428
25	0xbd3da1cf	-0.04629689
26	0x3c19a85f	0.009378522
27	0x3e54b4cd	0.20772095
28	0xbdccf673	-0.10007944
29	0x3dd1fb89	0.10253055
30	0x3d93a004	0.07208255
31	0x3db22c49	0.08699853
32	0x3d0dc379	0.034610245
33	0xbd566a95	-0.05234774
34	0x3d9ee27b	0.077580415
35	0xbdd122fd	-0.102117516
36	0xbe028cdf	-0.1274905
37	0x3e260111	0.16211344
38	0x3e2395ed	0.15975161
39	0xbdf2a63c	-0.11848113
40	0x3e074e89	0.13213553
41	0x3cc61b13	0.024182832
42	0x3ce244f4	0.02762077
43	0x3e4e47ff	0.20144652
44	0xbcd1b4ac	-0.025598846
45	0xbd997012	-0.07492079
46	0x3dc125f7	0.09431069
47	0xbd412c5d	-0.04716145
48	0xbd7915f9	-0.06081197
49	0xbdb9da3d	-0.09074829
50	0x3e24775c	0.16061157
51	0x3de7279e	0.11286853
52	0xbccc31cd	-0.02492609
53	0xbc19917d	-0.009373066
54	0xbb8f63c9	-0.004375909
55	0xbe0083b9	-0.12550248
56	0x3d9ed09d	0.077546336
57	0xbe08bf7e	-0.13354298
58	0xbc0b7835	-0.008512546
59	0xbd0c5161	-0.034257296
60	0xbd9fc289	-0.078007765
61	0x3e2d043c	0.16896147
62	0x3d4a9ec4	0.049467817
63	0x3dad92eb	0.08475288
64	0xbdf2b323	-0.11850574
65	0x3cf0c9ff	0.029393194
66	0x3d45ab36	0.048258983
67	0x3db5f428	0.0888446
68	0xbd735d04	-0.05941488
69	0xbd1bd993	-0.03804929
70	0xbe2244ad	-0.1584651
71	0x3df762a9	0.12079365
72	0x3df5246e	0.11969839
73	0x3da7b0ab	0.081879936
74	0x3dbab537	0.09116595
75	0x3ddea6d3	0.10871663
76	0x3e2db5e3	0.16963916
77	0x3d74e76d	0.059791017
78	0x3d847135	0.06466905
79	0x3d6c62fa	0.05771158
80	0xbdd8eda9	-0.10592205
81	0x3d2aabed	0.041667867
82	0x3d662f36	0.056197368
83	0xbe160612	-0.14650753
84	0xbd61774c	-0.05504541
85	0xbdf029d0	-0.11726725
86	0xbdf7a21c	-0.12091467
87	0x3dfc8a03	0.12331011
88	0x3e131361	0.14362861
89	0xbcce2e03	-0.025168424
90	0x3d268f5b	0.04066406
91	0xbd6fa1c0	-0.058503866
92	0x3cc122f6	0.023576241
93	0xbd369f51	-0.04458553
94	0xbdd88756	-0.10572688
95	0xbdbb79e0	-0.09154105
96	0x3e2a5137	0.16632544
97	0x3ca18d38	0.019720659
98	0xbddb521e	-0.10709022
99	0x3c11fb0f	0.008909955
100	0xbe3fc01f	-0.18725632
101	0xbc4580fe	-0.01205468
102	0x3dfeff26	0.124510095
103	0x3bebdf06	0.0071982173
104	0x3ce417b9	0.027843343
105	0xbe3fcf84	-0.18731505
106	0xbd4e3740	-0.05034566
107	0x3ddca3af	0.10773408
108	0xbe18f2ff	-0.14936446
109	0xbdce5c8b	-0.10076245
110	0x3ddca49f	0.107735865
111	0x3d1eb41d	0.03874599
112	0x3da6c3ec	0.08142838
113	0xbe37ddd5	-0.17955716
114	0x3dcedce6	0.10100727
115	0xbd645027	-0.0557405
116	0x3cc6b74d	0.024257326
117	0x3e0995c7	0.13436042
118	0xbe2c4a87	-0.16825305
119	0x3d55f61a	0.052236654
120	0xbdfb6107	-0.12274366
121	0x3e2aff81	0.1669903
122	0x3dc2a9c0	0.095050335
123	0x3da31c6d	0.07964406
124	0xbd49c1e6	-0.04925718
125	0x3dd148a7	0.102189355
126	0xbd576d84	-0.052594677
127	0x3d83781b	0.06419393
128	0x3e33758b	0.17525308
129	0xbde62bf9	-0.11238856
130	0xbcd23f21	-0.025664868
131	0x3da8ce33	0.082424544
132	0x3d8a0b96	0.06740491
133	0x3d68cbc0	0.056834936
134	0x3e429f8f	0.1900618
135	0xbc3770a2	-0.011196287
136	0x3da555eb	0.08073028
137	0x3dc628dd	0.09675763
138	0x3bc91b78	0.0061373077
139	0x3e1e6f4a	0.15472141
140	0x3e1f4b24	0.15556008
141	0x3e0d1f21	0.13781406
142	0xbd157522	-0.03648866
143	0x3e29bc7a	0.16575804
144	0xbd850c29	-0.0649646
145	0x3db9f899	0.09080619
146	0x3dbda199	0.09259338
147	0x3e37b4dd	0.17940088
148	0xbe193dc3	-0.14964966
149	0x3d025f62	0.031829245
150	0xbde7c2fd	-0.11316488
151	0x3daf38a0	0.08555722
152	0x3d5604cc	0.05225067
153	0xbe178972	-0.14798525
154	0xbc9b4366	-0.018953037
155	0x3d232195	0.03982695
156	0x3d91627c	0.070988625
157	0x3e251054	0.1611951
158	0x3dc33b11	0.095327504
159	0x3ce26dc4	0.027640231
160	0x3db688bf	0.08912801
161	0xbe2c4a27	-0.16825162
162	0x3de74b59	0.11293668
163	0xbd055cd0	-0.032559216
164	0x3dbc8056	0.09204166
165	0x3d28d30e	0.041216902
166	0xbc95caee	-0.018285241
167	0x3e0399a9	0.12851585
168	0xbded5484	-0.11588386
169	0x3d23264b	0.03983144
170	0x3d93308c	0.07186994
171	0xbd9ae421	-0.075630434
172	0x3d7cfee1	0.06176651
173	0xbe314a05	-0.17313392
174	0xbdd1388c	-0.102158636
175	0x3da539be	0.08067654
176	0x3daaa318	0.08331889
177	0xbe32cd1e	-0.17461058
178	0x3d816625	0.06318311
179	0x3c8ca22b	0.017167171
180	0x3e54308e	0.20721647
181	0xbe0ed2b9	-0.13947572
182	0xbc23560a	-0.009969244
183	0xbd9ec2f2	-0.077520266
184	0xbd9fbd99	-0.07799835
185	0x3bb39ba3	0.0054812
186	0xbe0af253	-0.13569002
187	0x3e303484	0.17207533
188	0xbd5c90e9	-0.053849135
189	0x3dab77f9	0.08372492
190	0xbe052588	-0.13002598
191	0x3d2dc50f	0.042424258
192	0xbdb29609	-0.08720023
193	0x3e2cfe79	0.16893949
194	0x3e3f0b5a	0.18656674
195	0x3e36534c	0.17805213
196	0xbc927328	-0.017877176
197	0x3de8b7cb	0.11363181
198	0xbdd68ff1	-0.104766734
199	0x3dee3773	0.1163167
200	0x3c8bdf91	0.017074378
201	0xbe04f290	-0.12983155
202	0xbe0cb6e3	-0.13741641
203	0xbe249006	-0.16070566
204	0x3d8bdd2c	0.068292946
205	0xbd100abb	-0.035166483
206	0xbd805ece	-0.062680826
207	0x3e4c7fb5	0.19970591
208	0xbd63d80c	-0.05562596
209	0x3d7c3d2e	0.061581783
210	0x3d517835	0.05114003
211	0x3e1553b4	0.14582711
212	0x3dd823b5	0.105536856
213	0x3e12f9ef	0.14353155
214	0x3dc02050	0.09381163
215	0xbc70d808	-0.014699943
216	0x3e47a4ce	0.19496462
217	0x3c992af7	0.018697245
218	0xbd843995	-0.064562954
219	0x3da6830f	0.08130466
220	0x3c1fffbe	0.0097655635
221	0xbdc8c0c6	-0.098023936
222	0x3d9a6f6d	0.07540784
223	0x3d14b28e	0.036303096
224	0xbc665cb6	-0.01406019
225	0xbd3ad13d	-0.0456097
226	0xbcec0e66	-0.02881546
227	0xbd976b9a	-0.0739357
228	0x3d936f30	0.07198942
229	0x3e584ede	0.21123835
230	0xbd1c3e44	-0.03814532
231	0x3b15e456	0.0022871695
232	0xbde16cb1	-0.11007059
233	0xbbb6fb96	-0.0055841906
234	0x3d81eb52	0.06343712
235	0xbc93a1c7	-0.018021477
236	0x3e256314	0.16151077
237	0xbd486c15	-0.0489312
238	0x3e2d0a18	0.16898382
239	0x3d0cbb51	0.034358326
240	0xbc80dd00	-0.015730381
241	0xbd889847	-0.066696696
242	0x3daae6ed	0.08344827
243	0x3e0fc360	0.14039373
244	0xbddb9f39	-0.10723729
245	0xbd3eca82	-0.046579845
246	0x3e113e4f	0.14183925
247	0xbd1c0a75	-0.03809591
248	0xbe004784	-0.12527281
249	0xbd71538f	-0.05891758
250	0x3ca46ee7	0.020072414
251	0xbcff9445	-0.03119863
252	0xbdff59f2	-0.124683276
253	0xbdd33fce	-0.10314904
254	0x3d40d803	0.047081005
255	0x3e009f5e	0.12560794

conv1.lin_rel.bias f4 [64]
0	0x3dd94b8c	0.106101125
1	0x3e12198b	0.14267556
2	0x3b130575	0.0022433673
3	0xbd6fabb8	-0.058513373
4	0x3c33b7c9	0.010969111
5	0xbd99103e	-0.07473801
6	0x3deefc06	0.116691634
7	0xbdeb2299	-0.11481208
8	0x3e21f37f	0.15815543
9	0xbcfe6b6b	-0.03105708
10	0xbe00474d	-0.12527199
11	0xbd90bf53	-0.07067742
12	0xbda7a620	-0.08185983
13	0xbd44baeb	-0.04802982
14	0x3d7c8462	0.061649688
15	0x3c55ea3a	0.013056332
16	0xbdb45908	-0.08806044
17	0x3ccfc268	0.025361255
18	0x3c1b918b	0.009495149
19	0x3da000d7	0.0781266
20	0xbcf77e6d	-0.030211652
21	0x3b963d72	0.0045849616
22	0xbc677e7d	-0.014129278
23	0xbe2ad349	-0.16682161
24	0x3e4c6a8c	0.1996252
25	0xbd6afa28	-0.057367474
26	0x3e37a5e3	0.17934375
27	0x3e3390a5	0.17535646
28	0x3d103e84	0.03521587
29	0x3df87a05	0.121326484
30	0xbe043a1e	-0.12912795
31	0x3c2fac89	0.010722288
32	0xbdfcb7c3	-0.12339737
33	0xbd9c1da6	-0.076228425
34	0x3db2e5fe	0.08735274
35	0x3e2d947a	0.1695117
36	0xbd84313d	-0.06454704
37	0xbd7fe131	-0.06247062
38	0xbd8140d1	-0.06311191
39	0x3c95664d	0.018237257
40	0xbdf755d6	-0.12076919
41	0xbde18fcb	-0.110137545
42	0xbc96b7a6	-0.018398117
43	0x3e39800a	0.1811525
44	0x3d7afae1	0.061274413
45	0xbd31f626	-0.043447636
46	0x3dee15bc	0.11625239
47	0x3e0e632d	0.1390502
48	0x3de97f30	0.11401212
49	0x3d02f7e2	0.03197468
50	0x3e84bd27	0.25925562
51	0x3e1d0db9	0.15337266
52	0x3e05126b	0.12995307
53	0x3e35f742	0.17770103
54	0x3de17c11	0.11009992
55	0xbc6282e2	-0.01382515
56	0x3e45a0d9	0.1929964
57	0x3d0eb000	0.034835815
58	0x3e2650a1	0.16241695
59	0x3e2b9e79	0.16759671
60	0x3e429c34	0.190049
61	0x3dd14b2c	0.10219416
62	0x3e2206c2	0.1582289
63	0xbdb74ca7	-0.08950167

conv1.lin_root.weight f4 [64, 30]
0	0xbd2bb5fc	-0.0419216
1	0xbc8e0bfe	-0.017339703
2	0xbd8c7086	-0.068574
3	0x3e27ad79	0.16374768
4	0x3ce3a07f	0.027786491
5	0xbcd73550	-0.026270539
6	0xbd49c68c	-0.049261615
7	0xbe0c8041	-0.137208
8	0x3d11f69d	0.03563558
9	0x3e34b17b	0.17645828
10	0x3e0b7545	0.13618954
11	0x3e288b28	0.16459334
12	0x3e1bbae6	0.15208015
13	0x3df752d8	0.12076348
14	0x3c64ed1f	0.01397255
15	0xbde61e82	-0.11236288
16	0x3e25f9cc	0.16208571
17	0xbde853eb	-0.11344131
18	0xbda058b9	-0.078294225
19	0x3dc70ada	0.09718867
20	0x3e038384	0.12843138
21	0xbd52d427	-0.051471855
22	0x3e034317	0.12818561
23	0xbe30c266	-0.17261657
24	0x3d89a0d9	0.067201324
25	0x3debf6b0	0.11521661
26	0x3db193b4	0.0867075
27	0xbd848edd	-0.064725615
28	0xbdfbf423	-0.12302425
29	0x3e156c67	0.14592133
30	0x3ce13fb0	0.027496189
31	0xbdc5923b	-0.09647032
32	0x3e2b0e67	0.16704713
33	0xbc4a6f76	-0.012355676
34	0xbd178d37	-0.036999907
35	0x3d102dbb	0.035199862
36	0x3e394bb4	0.18095285
37	0xbd864f2d	-0.0655807
38	0x3ca78c17	0.020452542
39	0xbda60e9e	-0.08108257
40	0xbdc54501	-0.09632302
41	0xbd1ae709	-0.03781799
42	0xbc9ea199	-0.019364165
43	0x3e033808	0.12814343
44	0xbe171e6b	-0.14757697
45	0x3dbf3080	0.093354225
46	0x3dfa1100	0.12210274
47	0xbac336d3	-0.0014893658
48	0xbcb9690f	-0.022633104
49	0x3cf9d3d8	0.030496523
50	0xbe3f33b2	-0.18672064
51	0x3e2873b5	0.16450389
52	0xbcd08e46	-0.025458466
53	0xbb21cbb5	-0.002468807
54	0x3d8d1482	0.06888677
55	0x3d7a55a3	0.061116826
56	0xbd5d3b75	-0.05401178
57	0xbdcc1b59	-0.09966154
58	0xbe3430ba	-0.17596713
59	0xbe1c1d1b	-0.15245478
60	0xbd26976d	-0.040671755
61	0xbe121e50	-0.14269376
62	0xbca11a97	-0.019666
63	0xbdbad7a3	-0.09123161
64	0x3dd02ea2	0.101651445
65	0x3df46d9d	0.119349696
66	0x3e1ddfc0	0.15417385
67	0xbde5a675	-0.1121339
68	0xbe03b135	-0.12860568
69	0x3d7288b6	0.05921241
70	0xbd1b1d03	-0.037869465
71	0x3e18054a	0.14845768
72	0xbe2d8857	-0.16946541
73	0x3e2a0f40	0.1660738
74	0xbe0201f9	-0.12696065
75	0xbe15f99d	-0.14646001
76	0xbcb1c025	-0.021698067
77	0xbd817d56	-0.06322734
78	0xbdec6fae	-0.11544739
79	0x3dd8158c	0.10550985
80	0x3e0e69df	0.13907574
81	0x3dc8f16a	0.09811671
82	0x3ca8c03d	0.020599479
83	0xbd0c1c3c	-0.034206614
84	0xbdcfd7a0	-0.10148549
85	0x3e2f4fe1	0.17120315
86	0xbdd229fb	-0.102619134
87	0xbe22da3c	-0.15903562
88	0x3e1edfb5	0.15515025
89	0xbc713e5d	-0.014724341
90	0x3ddb4c47	0.10707908
91	0xbd9cb906	-0.07652478
92	0x3e05b5f4	0.13057691
93	0xbe14314e	-0.14471933
94	0x3dcc0d8c	0.09963521
95	0x3e0351bd	0.1282415
96	0xbc8cf4ed	-0.017206633
97	0x3de4904a	0.111603335
98	0x3a440eba	0.0007479001
99	0xbe33fb2d	-0.17576285
100	0x3d865913	0.06559958
101	0xbe1f6091	-0.15564181
102	0xbc205898	-0.009786747
103	0xbe35f818	-0.17770422
104	0xbdd3673c	-0.10322425
105	0xbd897cc4	-0.0671325
106	0xbdb248f9	-0.08705325
107	0xbe382985	-0.17984588
108	0xbdcf7321	-0.10129381
109	0xbe3bbaf7	-0.1833304
110	0xbe2c8b83	-0.16850094
111	0xbe4852a3	-0.19562773
112	0xbddfdf55	-0.10931269
113	0xbd474214	-0.048647
114	0x3e193285	0.14960678
115	0xbe13fdf1	-0.1445234
116	0xbe1ba999	-0.15201415
117	0xbe209e7f	-0.15685461
118	0x3e2ee789	0.17080511
119	0xbcbf4564	-0.023348518
120	0xbc12f5eb	-0.008969764
121	0x3e104bd4	0.14091426
122	0xbd77042b	-0.06030671
123	0xbd4aa7ed	-0.049476553
124	0x3e459b22	0.1929746
125	0x3e0bfe1d	0.13671155
126	0xbe05838f	-0.13038467
127	0x3a5cb44c	0.00084192003
128	0x3d86d27e	0.06583117
129	0x3dcfb695	0.10142247
130	0xbdc11985	-0.094286956
131	0x3e2699d8	0.16269624
132	0x3d20b827	0.03923812
133	0xbdcec5fc	-0.10096356
134	0x3dbbc039	0.09167523
135	0xbe06eabf	-0.13175486
136	0x3d3dae82	0.046309
137	0xbe38e79f	-0.18057106
138	0xbc99d03c	-0.018776052
139	0x3b6deada	0.0036303313
140	0xbe02d420	-0.12776232
141	0x3b7fc415	0.0039026786
142	0x3c8564f3	0.016283488
143	0xbdb4ba8b	-0.08824643
144	0x3d805322	0.06265856
145	0x3e0b57a3	0.1360765
146	0x3daf56c9	0.08561475
147	0xbe1cb033	-0.1530159
148	0xba173bf3	-0.0005769126
149	0xbdaf3b4f	-0.08556234
150	0x3d2e7478	0.042591542
151	0xbe1fca8b	-0.15604608
152	0xbe0c8029	-0.13720764
153	0xbc2d3a63	-0.0105730025
154	0x3dc863e2	0.09784676
155	0xbd6ddd89	-0.0580726
156	0xb9bd7ed4	-0.00036143383
157	0xbc808edc	-0.01569312
158	0xbe112266	-0.14173278
159	0xbcbcbaf4	-0.023038365
160	0x3b9a15b6	0.004702295
161	0x3d1357b2	0.035972305
162	0x3d9547c5	0.072890796
163	0x3d3026bf	0.0430057
164	0x3dbb48cb	0.091447435
165	0xbd3936af	-0.045218166
166	0xbdb3791a	-0.08763333
167	0x3e1ec5de	0.15505168
168	0x3e09721f	0.1342244
169	0x3dbad764	0.09123114
170	0x3dfe869b	0.12428018
171	0x3d9fc662	0.078015104
172	0x3e20b01f	0.15692185
173	0x3e1bc797	0.15212856
174	0xbe208a7b	-0.15677826
175	0xbe3af0c3	-0.18255906
176	0xbdd82e67	-0.105557255
177	0x3e03accc	0.12858886
178	0x3e28e83a	0.16494837
179	0x3c432208	0.011909969
180	0xbdd91ceb	-0.10601219
181	0xbd5d0fed	-0.053970266
182	0x3de9b817	0.114120655
183	0x3e2dc7a4	0.16970688
184	0x3d651726	0.05593028
185	0xbdb48b89	-0.08815677
186	0x3e3b22a4	0.18274933
187	0x3e247c80	0.16063118
188	0xbd73ff78	-0.059569806
189	0xbdab9e27	-0.083797745
190	0x3e10a5b8	0.14125717
191	0xbdc612ff	-0.09671592
192	0x3e451a34	0.19248277
193	0xbc923d2f	-0.01785144
194	0x3ccd1611	0.025034936
195	0xbd8f01d4	-0.069827706
196	0xbe092f86	-0.13397035
197	0x3d05a7e9	0.032630835
198	0xbd3e7fdf	-0.046508666
199	0xbd914e74	-0.07095042
200	0x3e401d6e	0.18761227
201	0x3d5dde99	0.054167364
202	0xbd3866e7	-0.04502001
203	0xbe21bd10	-0.15794778
204	0xbd8b3c60	-0.06798625
205	0xbcf79fcf	-0.03022757
206	0x3dc04b1c	0.09389326
207	0xbdff3b9e	-0.12462543
208	0x3dd87df8	0.10570902
209	0x3e2a0ed9	0.16607226
210	0x3df7bafe	0.12096213
211	0xbdda4746	-0.106581256
212	0x3da9457e	0.08265208
213	0x3cd1548d	0.025553012
214	0x3dcbd515	0.099527515
215	0x3d145522	0.036214
216	0x3e10a490	0.14125276
217	0x3d863cd6	0.06554572
218	0x3d5542e9	0.052065764
219	0x3dd9c67c	0.10633561
220	0xbe208c6a	-0.15678564
221	0x3d93d61c	0.072185725
222	0x3e5f08c8	0.21780694
223	0x3e574e60	0.21025991
224	0x3dce91c9	0.100864
225	0x3d1922ce	0.037386708
226	0x3dfd26d5	0.12360922
227	0xbe194313	-0.14966993
228	0x3cf3e0ec	0.029770337
229	0x3e5a3351	0.21308638
230	0x3d9fba53	0.077992104
231	0x3d9c6e29	0.07638199
232	0xbe05fded	-0.13085146
233	0xbdd0278b	-0.10163792
234	0x3da2d4d3	0.07950749
235	0xbd04a4c4	-0.032383695
236	0x3cf44fae	0.02982315
237	0xbce5563d	-0.027995223
238	0x3d67f0b7	0.056626048
239	0x3ce47c7a	0.027891386
240	0xbe3342e0	-0.1750598
241	0x3d842bdf	0.0645368
242	0xbc17a136	-0.009254744
243	0xbda3d535	-0.079996504
244	0x3e0d9ff6	0.13830552
245	0xbdf205c4	-0.11817506
246	0xbe25b934	-0.1618393
247	0x3d01a119	0.031647775
248	0xbd9bd915	-0.076097645
249	0xbd83e085	-0.06439308
250	0xbe2dc7dc	-0.16970772
251	0xbd2c5fc3	-0.042083513
252	0x3e164ecb	0.14678495
253	0xbe214a4f	-0.15751003
254	0xbdeeeee4	-0.116666585
255	0xbd0d9ae8	-0.03457156

conv2.lin_rel.weight f4 [64, 64]
0	0x3d9c85fb	0.07642742
1	0xbdafbc4d	-0.085808374
2	0x3dcbc2d8	0.09949273
3	0x3d8cd76e	0.068770275
4	0xbd6874a7	-0.056751873
5	0x3d90e2c1	0.070745
6	0xbd7fbf45	-0.06243827
7	0x3dc1895f	0.094500296
8	0xbccdc0a1	-0.025116267
9	0x3d9b4278	0.07581037
10	0x3db50225	0.088383
11	0x3d8aa676	0.06770031
12	0x3ced7ccb	0.02899017
13	0xbb8081d7	-0.003921728
14	0xbdf9d465	-0.12198714
15	0xbcdb6f43	-0.026786452
16	0x3d6f937a	0.058490254
17	0x3dc54510	0.09632313
18	0x3cada94f	0.021198897
19	0xbdc38b65	-0.09548072
20	0xbc686cff	-0.014186143
21	0xbd912491	-0.070870526
22	0xbc9c13db	-0.019052437
23	0xbdc0c212	-0.09412016
24	0xbd083ea5	-0.033262867
25	0xbcb615e2	-0.022227231
26	0x3d58d902	0.05294133
27	0xbda3564a	-0.07975443
28	0xbde91b00	-0.11382103
29	0xbcc849f1	-0.02444932
30	0x3dcd6222	0.10028483
31	0x3d175e08	0.03695491
32	0x3d3f14c1	0.04665065
33	0xbe125114	-0.14288741
34	0xbcb76fef	-0.022392241
35	0xbd4d8ff2	-0.050186105
36	0x3a232f60	0.0006225016
37	0x3d905844	0.07048085
38	0x3dbe3488	0.09287363
39	0x3ce8f9d0	0.028439432
40	0x3d7a6dd8	0.06113991
41	0xbd4fbf1e	-0.050719373
42	0xbd00baf5	-0.031428296
43	0xbe0a4af2	-0.13505152
44	0xbddfbdff	-0.10924911
45	0xbdf8c7da	-0.12147494
46	0x3d60e96c	0.05491011
47	0x3d2abec2	0.041685827
48	0xbdf43b1a	-0.11925335
49	0x3da20e40	0.07912874
50	0xbdf62304	-0.120183975
51	0xbc26e417	-0.010186217
52	0xbe0ab0d2	-0.13544014
53	0x3da5d2d4	0.08096853
54	0xbda05174	-0.07828036
55	0xbdd45d12	-0.10369314
56	0x3d1889a2	0.037240632
57	0xbd42d6c0	-0.047568083
58	0x3d74bbbb	0.059749346
59	0x3dc4d05b	0.09610053
60	0x3d86940f	0.06571209
61	0xbb3abae1	-0.0028492736
62	0xbd03453c	-0.03204845
63	0xbddcbc10	-0.107780576
64	0xbdbf7b0a	-0.0934964
65	0xbdbf6787	-0.09345918
66	0x3d7182f6	0.058962785
67	0xbc5af16e	-0.013363225
68	0xbdd688f8	-0.104753435
69	0x3dc1782a	0.094467476
70	0xbd66b68e	-0.05632644
71	0x3dda7b10	0.106680036
72	0x3dce7e33	0.10082664
73	0x3b37f381	0.0028068724
74	0xbded37f1	-0.115829356
75	0x3cadfdf1	0.021239253
76	0xbc9889cf	-0.0186204
77	0xbd9f0e23	-0.07766368
78	0xbdcb25f5	-0.09919349
79	0xbdd5735a	-0.10422392
80	0x3a679bb9	0.0008835155
81	0x3d11c056	0.035583816
82	0x3b5e7fba	0.0033950643
83	0x3d56fbda	0.052486278
84	0xbd6cfadd	-0.05785643
85	0xbd83905e	-0.0642402
86	0x3dd323f1	0.1030959
87	0xbddb0890	-0.106949925
88	0xbe0a10c4	-0.13482958
89	0x3dcedf16	0.10101144
90	0x3d689ce5	0.05679025
91	0xbd20c8ec	-0.039254114
92	0x3c86c040	0.016449094
93	0xbd6f96dc	-0.05849348
94	0xbd094ea9	-0.03352228
95	0xbb1fe84c	-0.0024399934
96	0xbd77e7d5	-0.060523827
97	0xbc43d207	-0.01195193
98	0xbd898f31	-0.06716765
99	0xbdf6b4cc	-0.12046203
100	0x3d26584b	0.040611546
101	0xbddd32d0	-0.10800707
102	0xbe11c2cf	-0.1423447
103	0x3bc8c9a6	0.006127554
104	0x3d907530	0.07053602
105	0x3cbf33c4	0.023340113
106	0xbdddba24	-0.10826519
107	0x3d72a410	0.059238493
108	0xbd6d31d1	-0.057908837
109	0xbd145e0d	-0.036222506
110	0x3d643e43	0.05572344
111	0x3cf14948	0.029453889
112	0xbd7f9cba	-0.062405325
113	0x3d64327c	0.05571221
114	0xbd09189a	-0.033470728
115	0xbd5a0fb7	-0.053237643
116	0x3d8892dd	0.06668637
117	0xbd45c9d3	-0.048288178
118	0xbc9ee078	-0.019394144
119	0x3dc94aa5	0.098286904
120	0x3dccc00e	0.09997569
121	0x3c5a8ddd	0.013339487
122	0x3d9c56fc	0.076337785
123	0xbd0be9ac	-0.034158394
124	0xbd9c71a9	-0.076388665
125	0x3dca5bd7	0.09880798
126	0x3d43b62c	0.047781155
127	0x3d87c967	0.06630211
128	0xbc6f84e0	-0.014619082
129	0x3ddea1e9	0.10870726
130	0x3e157c7a	0.14598265
131	0x3d5cfed6	0.053953968
132	0x3e0a9c94	0.13536292
133	0xbd8623c9	-0.06549794
134	0x3dd27c08	0.10277563
135	0x3d86cccf	0.06582033
136	0x3e231f45	0.15929897
137	0x3daa06dc	0.083020896
138	0x3e000f0d	0.12505741
139	0xba92f28b	-0.00112112
140	0x3d618a2f	0.055063423
141	0x3e8875d1	0.26652387
142	0xbd068840	-0.032844782
143	0x3ca77419	0.020441102
144	0xbd5c9138	-0.05384943
145	0xbc1ff70a	-0.009763489
146	0x3dcd43c0	0.10022688
147	0x3bd5966d	0.0065181763
148	0x3e89d0a0	0.2691698
149	0x3d6ce475	0.05783506
150	0x3db6d343	0.08927014
151	0x3d02ec33	0.03196354
152	0xbd92e7c5	-0.07173113
153	0x3d02d31f	0.031939622
154	0xbcbbcb3c	-0.022924058
155	0x391e007f	0.00015068239
156	0x3e16e99e	0.14737555
157	0xbd583b5e	-0.052790992
158	0xbd25914c	-0.04042177
159	0x3bc16f37	0.0059031504
160	0xbbd9211e	-0.0066262623
161	0x3d9e2b85	0.077231444
162	0x3e011a6a	0.12607732
163	0x3d820183	0.063479446
164	0x3d7deabe	0.061991446
165	0x3dd14a92	0.10219301
166	0x3dfce8dd	0.12349103
167	0x3d4a0d46	0.049329065
168	0xbd1aa3e4	-0.037753955
169	0xbd81c5c7	-0.06336551
170	0x3e309c47	0.17247115
171	0x3db33333	0.0875
172	0x3e2466e5	0.16054876
173	0xbba45da3	-0.005016045
174	0x3da3893c	0.0798516
175	0xbcb4edd3	-0.02208606
176	0xbca93076	-0.02065299
177	0xbc45e02e	-0.012077374
178	0x3ec34785	0.38140503
179	0x3e0da1a4	0.13831192
180	0xbce75452	-0.02823845
181	0xbd2b3131	-0.04179496
182	0x3da5d700	0.080976486
183	0x3c8cfe2c	0.017211042
184	0x3d5833b3	0.05278368
185	0x3d67d7e3	0.05660237
186	0xbd8a172b	-0.067427
187	0x3d8b206d	0.06793294
188	0x3d48540e	0.048908286
189	0xbd418c52	-0.04725296
190	0xbd9533f9	-0.072853036
191	0x3de0bd1d	0.109735705
192	0xbd921cef	-0.07134425
193	0xbc94f133	-0.018181419
194	0x3de3f548	0.11130768
195	0xbd4187cf	-0.047248658
196	0xbc63dde0	-0.01390788
197	0xbd35e3bc	-0.044406638
198	0x3df80e68	0.12112123
199	0x3ddf1f35	0.10894624
200	0x3d54a6ca	0.051916875
201	0x3d9a67f2	0.07539357
202	0x3d51a392	0.051181383
203	0x3c4f68c3	0.0126592545
204	0x3cf08755	0.029361406
205	0x3d9914f1	0.074746974
206	0xbb0ab3a3	-0.00211642
207	0x3d7738e3	0.060356986
208	0x3cc1ee13	0.023673093
209	0x3dcec9a3	0.10097053
210	0x3dcb4e9a	0.099271014
211	0x3e0a4d2b	0.13506
212	0x3e6ab9ca	0.22922435
213	0x3cfa84a6	0.03058083
214	0x3db5e84f	0.088822
215	0xbda66e4f	-0.081265084
216	0x3de4773a	0.11155553
217	0x3c50f1d4	0.012752969
218	0xbd7101ff	-0.058839794
219	0xbd600f46	-0.054702066
220	0xbd80aad0	-0.0628258
221	0xbc97f183	-0.018547779
222	0x3dc22313	0.09479346
223	0xbd7a13b1	-0.061053935
224	0x3cf6f486	0.030145895
225	0x3cae08f3	0.021244502
226	0x3db020a3	0.08599975
227	0xbc1e125a	-0.00964793
228	0x3de83dee	0.11339937
229	0xbd1b0598	-0.03784713
230	0x3deeb7e2	0.116561666
231	0xbda98da8	-0.08278972
232	0xbd32cf70	-0.04365486
233	0x3daa4a4c	0.08314952
234	0x3d7be58d	0.061498214
235	0x3e063edb	0.13109915
236	0x3ddb42b4	0.10706082
237	0xbd83a80e	-0.06428538
238	0x3e0be8a8	0.1366297
239	0x3bf186bc	0.007370798
240	0x3c5e0b54	0.0135525055
241	0xbc5e2602	-0.013558866
242	0x3e853761	0.26018813
243	0xbd9ccca4	-0.076562196
244	0x3d5ceb3d	0.05393528
245	0x3e09aae2	0.13444093
246	0x3c29de98	0.010368012
247	0x3e0db04b	0.13836782
248	0xbc6fd13d	-0.014637289
249	0x3db841b2	0.089969054
250	0x3d467069	0.048447046
251	0xbc3a1a7d	-0.011358854
252	0x3e28d334	0.16486818
253	0x3d296140	0.04135251
254	0x3d2e58a9	0.04256502
255	0x3cdbd582	0.026835207

conv2.lin_rel.bias f4 [64]
0	0x3c68cc79	0.014208906
1	0xbd207925	-0.039178032
2	0x3d847267	0.06467133
3	0xbd8245e7	-0.06360989
4	0x3da529c2	0.08064605
5	0xbd94ef90	-0.072722554
6	0xbcf9994c	-0.030468605
7	0xbd60b470	-0.05485958
8	0xbdaf79b1	-0.08568133
9	0xbc5ec603	-0.013597014
10	0x3d677068	0.056503683
11	0xbd6ad8d8	-0.057335705
12	0xbd5a761f	-0.053335305
13	0xbdb86618	-0.09003848
14	0x3cfa0d3c	0.030523889
15	0xbd570239	-0.052492354
16	0x3d9888da	0.07447977
17	0x3d75e7b0	0.060035408
18	0xbdeaa822	-0.1145785
19	0xbca19503	-0.019724375
20	0x3d988bcd	0.0744854
21	0x3dd807d5	0.10548369
22	0xbd72c963	-0.05927409
23	0xbd8bf29d	-0.06833384
24	0xbda43b30	-0.080191016
25	0x3d818894	0.06324878
26	0x3df4adeb	0.11947235
27	0xbc42d97e	-0.0118926745
28	0x3dc730eb	0.09726127
29	0xbd5a7fcf	-0.053344544
30	0xbe0d2393	-0.13783102
31	0xbb915eef	-0.004436366
32	0x3dd9d32d	0.10635982
33	0x3dcd7cfa	0.10033603
34	0xbbeae283	-0.0071681156
35	0xbcb16c62	-0.021658126
36	0x3d49f0f2	0.04930205
37	0x3d6ca474	0.057774022
38	0xbdeaf291	-0.11472047
39	0xbd05f0c3	-0.03270031
40	0x3d95ba4a	0.073109224
41	0xbbdd8868	-0.0067606457
42	0xbd6df4de	-0.05809485
43	0xbd780ef7	-0.060561147
44	0x3c9025ef	0.017596213
45	0xbd01a619	-0.031652544
46	0x3cffce4e	0.031226303
47	0xbd8123d7	-0.06305664
48	0x3dd45862	0.1036842
49	0x3d23061f	0.03980076
50	0x3e1d0588	0.15334141
51	0xbd59a299	-0.05313358
52	0x3dff6034	0.12469521
53	0x3cc14ee4	0.023597188
54	0xbda6af0d	-0.08138857
55	0x3d942767	0.07234078
56	0x3ddfb91c	0.10923979
57	0xbdd23162	-0.10263325
58	0x3db4d580	0.088297844
59	0x3b3143bb	0.0027048427
60	0xbcbba32c	-0.022904955
61	0xbd5b4735	-0.053534705
62	0xbd715641	-0.05892015
63	0x3e0be94a	0.13663211

conv2.lin_root.weight f4 [64, 64]
0	0xbd7696d0	-0.06020242
1	0xbdc0b590	-0.0940963
2	0x3dd2257c	0.10261056
3	0xbe127122	-0.14300969
4	0xbdeaa125	-0.11456517
5	0x3cb402c6	0.021973979
6	0x3dba984f	0.09111082
7	0xbda47818	-0.080307186
8	0xbda7b744	-0.08189252
9	0xbdab8b62	-0.083761945
10	0x3d8a4768	0.06751901
11	0xbcbf8838	-0.023380384
12	0xbdeae354	-0.11469141
13	0xbd9c5025	-0.07632474
14	0xbdfad513	-0.12247672
15	0x3ca2402f	0.019805996
16	0xbda74bed	-0.081687786
17	0xbc3dca46	-0.01158387
18	0x3d7d3ad5	0.061823685
19	0x3d8e32b7	0.06943267
20	0xbe0dbb5f	-0.13841008
21	0x3d2977e1	0.04137409
22	0x3dbd53a7	0.09244471
23	0x3dac7387	0.084204726
24	0x3cc36da1	0.023855986
25	0xbcd4c283	-0.025971657
26	0xbdbe4c79	-0.0929193
27	0xbdb217b5	-0.08695928
28	0xbdbc27b1	-0.09187258
29	0xbd5e8d66	-0.054334067
30	0x3d4d8826	0.05017867
31	0x3dcc4d07	0.09975629
32	0x3d508423	0.050907265
33	0xbd5c302d	-0.05375688
34	0xbc169813	-0.009191531
35	0xbd9241f9	-0.071414895
36	0xbd7f29f7	-0.06229588
37	0xbd4ac10e	-0.049500518
38	0xbcf4ce1a	-0.029883433
39	0xbc5f9bc6	-0.013647979
40	0x3d150ce2	0.03638924
41	0x3cb9f969	0.022701936
42	0x3d87dd42	0.066339985
43	0xbb30888a	-0.0026936852
44	0xbdf79211	-0.12088407
45	0xbc461486	-0.012089854
46	0x3d0528eb	0.032509726
47	0xbe04c69c	-0.12966388
48	0xbc507f34	-0.01272564
49	0x3d690cfa	0.05689714
50	0xbdacfc6d	-0.08446584
51	0x3d166419	0.036716554
52	0xbdcaf9a5	-0.09910897
53	0x3cd93141	0.026512744
54	0x3cc2ebcc	0.023794077
55	0x3cdab10c	0.02669575
56	0xbddcba1e	-0.107776865
57	0x3d0fad13	0.035077166
58	0xbde1a9eb	-0.110187374
59	0xbdaa852e	-0.08326183
60	0x3ced2a42	0.028950814
61	0xbdd69da5	-0.10479287
62	0x3d4f4f6b	0.05061285
63	0x3d3eb317	0.046557512
64	0x3dcbc86c	0.09950337
65	0xbdb818d7	-0.08989113
66	0x3c8546ca	0.016269106
67	0x3da25f9e	0.07928394
68	0x3cbfffae	0.023437347
69	0xbd4890ef	-0.048966344
70	0x3dbb4a0b	0.09144982
71	0x3d80b24c	0.062840074
72	0x3c892c6b	0.016744813
73	0xbd6f17fd	-0.058372486
74	0xbdb88333	-0.09009399
75	0x3dba073c	0.09083411
76	0xbca4e29e	-0.02012759
77	0xbd0e9c65	-0.03481712
78	0xbccf60fe	-0.025314804
79	0xbdabe7b8	-0.08393806
80	0x3d22dbd4	0.039760426
81	0x3c4e75c5	0.012601321
82	0x3bdea469	0.0067945016
83	0xbd204cb1	-0.03913564
84	0x3cfe803b	0.031067004
85	0x3db24570	0.087046504
86	0x3d41d69c	0.047323808
87	0x3dcfb35b	0.10141631
88	0x3c98b4bc	0.018640868
89	0x3d315056	0.043289505
90	0xbd7a6f90	-0.06114155
91	0xbdd67a50	-0.10472548
92	0x3d320d94	0.04346998
93	0xbb3ae7d6	-0.0028519533
94	0xbcb202ed	-0.02172991
95	0xbafc615d	-0.0019255091
96	0x3d087b0b	0.033320468
97	0xbcd2bb30	-0.025724024
98	0x3d1298e8	0.035790354
99	0x3dd29146	0.10281615
100	0xbd0d7df4	-0.034543946
101	0xbd581eee	-0.05276387
102	0xbda1baff	-0.07896995
103	0x3d789915	0.060692865
104	0xbd634d16	-0.055493437
105	0x3c080c78	0.008303754
106	0xbdd804d0	-0.10547793
107	0x3cb3de46	0.021956574
108	0xbdee21c3	-0.11627533
109	0xba86bf29	-0.0010280359
110	0xbdbc957d	-0.092082
111	0xbe08bdeb	-0.13353698
112	0xbc47b074	-0.012188066
113	0x3ca2df82	0.019881967
114	0xbdbdfe14	-0.09276977
115	0xbdb2f978	-0.08738989
116	0x3d82f3dd	0.063941695
117	0xbd1e6620	-0.038671613
118	0x3d8212ea	0.06351264
119	0xbdac845d	-0.08423684
120	0xbd5e3862	-0.05425299
121	0x3d47e8fd	0.04880618
122	0xbe028584	-0.12746245
123	0x3ca26741	0.019824626
124	0xbdc58573	-0.09644594
125	0xbda2edd8	-0.07955521
126	0x3c0ad95f	0.008474677
127	0x3d56e2e6	0.05246248
128	0xbcbe1f63	-0.023208326
129	0x3d62f38c	0.055408046
130	0x3cde717f	0.027153729
131	0xbd387632	-0.045034595
132	0x3d009069	0.03138772
133	0x3d6743c1	0.0564611
134	0xbb40f209	-0.002944114
135	0x3d0c424f	0.034242924
136	0x3e18c2f2	0.14918116
137	0xbd1583ea	-0.036502756
138	0xbc7bf35a	-0.015377844
139	0x3e0cd046	0.13751325
140	0xbbfbea81	-0.007687867
141	0x3d9c863b	0.0764279
142	0xbba1a551	-0.0049330373
143	0xbd1b11ca	-0.03785876
144	0x3e07ecd3	0.13273935
145	0x3cb1b415	0.021692315
146	0x3db0d5c8	0.086345255
147	0x3de454b9	0.11148972
148	0x3da9027c	0.08252427
149	0x3dca5f17	0.09881418
150	0x3e1b3e2d	0.15160437
151	0x39aeaff2	0.00033318956
152	0x3db1589f	0.08659481
153	0xbc3afb6b	-0.011412482
154	0x3e0f1dcd	0.13976212
155	0xbd8ba49c	-0.06818506
156	0x3c89b25e	0.016808685
157	0x3d5ab40b	0.05339436
158	0xbd3c156c	-0.045918867
159	0xbd41b949	-0.047295842
160	0x3deae191	0.11468805
161	0xbd738ba5	-0.059459347
162	0x3d379343	0.044818174
163	0x3e1f5d09	0.15562834
164	0xbd29b976	-0.041436635
165	0x3e282783	0.16421323
166	0x3e1939a1	0.1496339
167	0x3c543b99	0.012953662
168	0x3db342e1	0.087529905
169	0x3c42af98	0.011882685
170	0xbc8dd6ea	-0.017314393
171	0x3dfa2613	0.12214293
172	0x3d84e07f	0.06488132
173	0x3db73cf3	0.08947172
174	0x3e22fef8	0.15917575
175	0x3d008dab	0.031385105
176	0x3cef71f4	0.029229142
177	0xbd7c95b8	-0.06166622
178	0x3e0946a5	0.13405855
179	0xbcb083d8	-0.021547243
180	0xbcef5a81	-0.02921796
181	0x3e12582f	0.14291452
182	0xbc21541a	-0.0098467115
183	0x3cdae972	0.026722644
184	0x3e0d3dfd	0.13793178
185	0xbc9b4884	-0.018955477
186	0x3d4aee32	0.049543567
187	0xbd8c146a	-0.06839831
188	0x3e135aaf	0.14390062
189	0xbda6a014	-0.08136001
190	0x3dff3f21	0.12463213
191	0x3d138aed	0.03602116
192	0xbc2904a2	-0.010316046
193	0x3c3746e5	0.011186336
194	0xbd6c9417	-0.057758417
195	0xbbada892	-0.005299636
196	0x3e09bf2d	0.13451834
197	0x3e0f470e	0.13991949
198	0x3df513c0	0.11966658
199	0x3d267812	0.04064185
200	0x3b8b894c	0.0042583104
201	0x3da8b447	0.0823751
202	0xbddbde4d	-0.1073576
203	0xbd921e38	-0.0713467
204	0xbd9d74a1	-0.07688261
205	0x3e76ef0c	0.24114627
206	0x3de290ff	0.11062812
207	0xbba17460	-0.004927203
208	0x3bc3dbc0	0.005977124
209	0x3db3bf55	0.08776728
210	0x3da1719e	0.07882999
211	0x3d6d8f8f	0.057998236
212	0x3e72e66b	0.2372071
213	0x3d7170a3	0.05894531
214	0x3b7672da	0.0037605078
215	0x3d6240ce	0.055237584
216	0x3defd300	0.11710167
217	0x3cee150d	0.029062772
218	0x3d932dce	0.07186471
219	0xbda5e053	-0.08099427
220	0xbd929671	-0.07157601
221	0xbd9de7f4	-0.07710257
222	0x3da41411	0.0801164
223	0xbd0aef04	-0.03391935
224	0x3dce579b	0.10075303
225	0x3d44598b	0.047936957
226	0x3dabb545	0.08384184
227	0xbd8177ba	-0.06321664
228	0x3e246c31	0.16056897
229	0xbd902b0c	-0.070394605
230	0x3b9d5fe3	0.0048026904
231	0x3cf17574	0.029474951
232	0x3d8850f7	0.06656068
233	0x3cb21d31	0.021742435
234	0xbda40e45	-0.08010534
235	0xbd0b366a	-0.03398744
236	0xbcdcd59f	-0.026957331
237	0x3e280cd7	0.16411148
238	0x3d9456aa	0.07243092
239	0x3df1b5ef	0.11802279
240	0xbc6646a2	-0.014054926
241	0x3dec9a09	0.115528174
242	0x3e43a2ec	0.19105119
243	0x3d9d7ad1	0.07689441
244	0x3dbd087f	0.09230136
245	0x3e25a3a2	0.16175702
246	0x3d8ee204	0.06976703
247	0x3d09abe4	0.033611193
248	0x3e14acb7	0.1451901
249	0x3e00a741	0.12563802
250	0xbd437a15	-0.04772385
251	0xbc8b957d	-0.017039055
252	0x3e054add	0.1301684
253	0xbc14be3b	-0.009078558
254	0xbc6b77a8	-0.01437179
255	0x3cb98814	0.022647895

fc.weight f4 [2, 64]
0	0x3c082d55	0.008311589
1	0xbd83960b	-0.06425103
2	0x3e0c6a23	0.13712363
3	0xb9e883f0	-0.0004434879
4	0xbdb55dfa	-0.08855815
5	0xbd49180c	-0.0490952
6	0xbd25bf9a	-0.04046593
7	0x3d0d0f07	0.03443816
8	0xbddec284	-0.10876945
9	0x3d81b297	0.063328914
10	0xbd8ba0d8	-0.06817788
11	0x3c12c4cc	0.008958053
12	0xbc96658e	-0.018358972
13	0xbca30b3f	-0.019902823
14	0x3dc358cf	0.09538423
15	0xba160aff	-0.00057236844
16	0x3d8577ef	0.06517016
17	0x3dfeb846	0.12437491
18	0x3d9d7df2	0.07690038
19	0x3d807b6d	0.062735416
20	0x3d0d2fc7	0.034469392
21	0xbd36cda1	-0.044629697
22	0xbd9bd64b	-0.076092325
23	0x3e23b9ab	0.15988795
24	0xbdd1692d	-0.10225139
25	0x3ba6365b	0.0050723976
26	0x3e1e3fad	0.15453978
27	0xbc1b0871	-0.009462462
28	0xbdbf24ff	-0.09333228
29	0x3e2a20f6	0.16614136
30	0xbca5ae05	-0.02022458
31	0x3d92ea78	0.071736276
32	0x3db8a623	0.09016063
33	0xbcd04b3d	-0.025426501
34	0xbddf2b77	-0.10896962
35	0xbbd48726	-0.0064858375
36	0xbdb50bfd	-0.08840177
37	0xbd32a432	-0.04361362
38	0xbdcf32c1	-0.101171024
39	0x3dc158dd	0.094407775
40	0xbd9847e7	-0.07435589
41	0x3dc1990e	0.09453021
42	0x3e28a52e	0.16469261
43	0x3dc8f4c9	0.09812314
44	0x3e91fae7	0.28511736
45	0x3d151384	0.036395565
46	0x3e0bc82d	0.1365058
47	0x3e2c4ed3	0.16826944
48	0x3d2ad48c	0.041706607
49	0x3dc630b4	0.09677258
50	0x3de44c77	0.11147397
51	0x3c5deabf	0.013544737
52	0x3e1847f9	0.14871205
53	0x3d2a2069	0.041534815
54	0xbd23758f	-0.039907034
55	0xbda8b869	-0.082382984
56	0x3d877457	0.06613987
57	0xbdb88137	-0.09009021
58	0xbdcd2f1a	-0.100187495
59	0x3e1b3533	0.15157013
60	0x3e03ed92	0.12883595
61	0xbc9fbca2	-0.019499127
62	0x3dc74bee	0.09731279
63	0x3da84934	0.082170874
64	0x3dc97bfa	0.098381
65	0x3caed745	0.021342883
66	0xbb6116a7	-0.0034345777
67	0xbe0eb568	-0.13936388
68	0x3ce42575	0.027849892
69	0xbe164624	-0.14675194
70	0xbe0a517d	-0.13507648
71	0x3d6a91cb	0.057267945
72	0xbd958020	-0.072998285
73	0x3da273fa	0.07932277
74	0xbd2709cd	-0.04078083
75	0x3d550d86	0.05201485
76	0x3dd594f0	0.10428798
77	0xbad60b75	-0.0016330319
78	0x3dc9ba3d	0.09849975
79	0xbdf8dc50	-0.12151396
80	0x3d320c07	0.0434685
81	0xb9cf93c3	-0.00039592208
82	0x3da32738	0.07966465
83	0x3dd7a229	0.105289765
84	0xbd968089	-0.07348735
85	0x3bcceb84	0.0062536616
86	0xbda2ea2a	-0.079548195
87	0x3c37d4ca	0.011220166
88	0xbc40ff8d	-0.011779678
89	0xbdbf24a4	-0.093331605
90	0xbdf50304	-0.11963466
91	0x3c87eddd	0.016592914
92	0x3dcbb2dc	0.09946224
93	0xbe1e721a	-0.15473214
94	0x3d8c3d5f	0.06847643
95	0x3d8ba130	0.068178535
96	0xbe10e2b7	-0.14148985
97	0x3d2d9f78	0.04238841
98	0xbaa919d0	-0.001290137
99	0x3daa07e4	0.08302286
100	0x3dc20c21	0.0947497
101	0x3d5439cd	0.051812936
102	0xbd626b2f	-0.055278
103	0xbe150d6e	-0.14555904
104	0x3d963cf4	0.07335845
105	0xbd09603e	-0.03353905
106	0xbc4a5bdc	-0.012351003
107	0x3b6373e9	0.003470654
108	0xbe6ee4a5	-0.23329408
109	0x3da22d3f	0.07918786
110	0xbdb0a10a	-0.08624466
111	0xbaff7a24	-0.0019491357
112	0x3d2f8431	0.042850677
113	0xbdcf88fe	-0.10133551
114	0x3ca9b39c	0.020715527
115	0xbba33573	-0.004980737
116	0xbe2a0dfb	-0.16606896
117	0x3d6c19c1	0.05764175
118	0xbe1672f7	-0.14692293
119	0x3d33cffd	0.043899525
120	0xbdbc78a0	-0.09202695
121	0xbd8e713b	-0.06955191
122	0x3d6aa163	0.057282817
123	0xbd273408	-0.040821105
124	0xbe00e7eb	-0.1258847
125	0x3cec4a98	0.028844163
126	0xbdd5003a	-0.10400434
127	0xbe1e0050	-0.15429807

fc.bias f4 [2]
0	0x3e022277	0.1270846
1	0xbe076547	-0.13222228
